data/topic_embeddings.safetensors (safetensors, 460888 bytes, 1 tensors)

topic_embeddings f4 [225, 512]
00000000: b0f3 9b3b 1b6f 66bb 8870 e63a fcfb 1d3c
00000010: 43df 993d 38ec 1e3b 6212 2dbc d33f 173c
00000020: 3521 933c 023b 7f3c 5990 093c f81a 0e3c
00000030: 801f a43b 46c0 5dbc f06d 503c f398 85bc
00000040: 7ce7 3f3c 8806 ce3c 75c2 153c 7fe0 023c
00000050: d594 843b 2f3c fdbb 4660 913c 1d7a 3bbb
00000060: cd0c 853b 9abc 6b3c 9f6a dbbb 433a 7fbb
00000070: 67de 783b 4d87 94bb 058b ffbc 82f0 90bc
00000080: 028d 203b 0985 abbb 30d9 0bbb 5896 4f3b
00000090: 55c8 81bb 39f0 64bc 8ec8 f1bb 0d33 673c
000000a0: e4ce 2b3b b1fa c33b 9f52 d93b 99a0 8b3c
000000b0: c093 1b3c 1b5f 8a3b 3560 69bc 42b7 5c3c
000000c0: f1b4 7ebc 33ac 9bbc e11d 6cbb ef02 413b
000000d0: 8f43 193c 1f01 b5bb 5a5a f23c 1b27 b9bc
000000e0: 909e 81bb 8ee0 313a e5df 383b 5a1e d93b
000000f0: 5485 823c 0dfa 04ba 7aa6 a23b 2c61 473c
00000100: 4d33 9b3b e025 aebb 2a8c 24bc c1d5 053c
00000110: efb7 ef3b 2780 afbb 12b9 36bc a523 0e3b
00000120: 1a47 313c 1282 92bb a541 b1bc 6a27 4e3c
00000130: 46da 523c 6c57 2b3c 1ba4 913c b67d e13b
00000140: 40d7 fe3c 079a 1dbd d8d4 2a3d b230 7bbb
00000150: bee8 c43b 9c73 eb3b d315 353c 0dd3 453b
00000160: 01a9 e4b9 d055 b6ba beb7 8abc 9ea4 64bc
00000170: 8eef 81bc 8f08 98ba 6534 a93b 05bf 3439
00000180: e0b4 6d3a 5e5d 063c efb9 44bb 3cde c43b
00000190: f7aa 8e3c df77 25b7 9b72 08bb 62af 043a
000001a0: 5649 b3bc 9917 aebc b9fd b6bb 1d76 b1ba
000001b0: 3124 133c e9a5 85bb aed6 433b 4a26 213d
000001c0: b4cb 4fbb ee55 9dbb a065 11bd f8ef 1a3c
000001d0: c05a 4aba 1317 603c 5ee4 623d 403d 003b
000001e0: cba6 0bbc 8f35 743c ec94 683a 92bd 4cbc
000001f0: 3816 0abb 11e6 1bbc 0361 7bbc b501 a3bc
00000200: f6f8 c2bb deb1 9e3c 7205 0f3a d84c 84bc
00000210: f0b0 763b 6931 903c d8d8 e8bc 583d debb
00000220: 8437 98bc b193 50bc 994c 07bc 3f6d 473c
00000230: fdc5 7bbc 58a0 b33b 7fe7 013c 4475 77bc
00000240: a642 bcbc 3265 583c dd21 813c 2637 05bc
00000250: 5efd 9b3b 1786 f63b e912 983b 7d15 f33c
00000260: 2dff a7bb 0c57 f1bb 5266 0a3c 59d8 2a3c
00000270: 3d3f 3a39 2c6e 8e3b b749 e93a 6ae4 01bb
00000280: 5d59 a93c 79f4 03bc 4ae6 3bbc c64f 3e3c
00000290: 5270 bcbc 8324 14bb c551 083b b53a adbc
000002a0: ec4c 8d3c fe7d 68bb 5b59 debc f6e4 393b
000002b0: c1b3 b13b 11d1 013b d745 2fbc bd52 cfbc
000002c0: 4bf6 90bb 1f00 52bb 5d71 db3b a14f 223a
000002d0: ec48 a63b f14f 893b d885 b3ba 6179 663b
000002e0: f325 c6bb cea7 d6bb 6fd2 8d3c fc5d d3bc
000002f0: 525c 02bc 4a43 04ba 619e a7bb 6d63 31bc
00000300: 80ed 863b 06f5 36bb 212c 153c 8aae 293b
00000310: db21 573c b07f 61bc 56a5 06bc d2c7 8ab8
00000320: cb9f b3bb 2923 98bc 7897 a73b ba52 a93b
00000330: 8e88 b63c bdce 78bb 3e75 b3bb 172a 84bc
00000340: 74ec 823b f5c6 743c dc44 ed3b fc75 47bc
00000350: bd10 cdbc 6373 c63b 34b2 8abc 7c6d 5d3c
00000360: 901d 09bc 3d50 963a 8e14 b7bb f762 c03b
00000370: d38c 193c d8bb 39bc b23d 92bb 2835 423c
00000380: 316c 9a37 679f 063c 2e8f a43b 5700 813b
00000390: db7f be3b 9d09 4f3c e0f9 0f3c 19ee 003d
000003a0: a940 0abc 7d51 90bb 56c2 ab3b 9683 973c
000003b0: 42df 373b 19e9 e23b 397e 033c fed4 9bbc
000003c0: e0f4 98bc b41c 53bc 19a1 92bb 8d61 e3bb
000003d0: c86b 273c d267 f23b 59c9 56bc d63c 84bc
000003e0: 7e97 94ba b30e 05bd 4e11 9d3b 78c3 213c
000003f0: b7a0 67bb 2967 2cba 2ebe 6a3b 731d a83b
0.0047592744 -0.003516144 0.0017581144 0.009642597 0.07513287 0.0024249684 -0.010563465 0.0092315255
0.01796017 0.015578033 0.008396232 0.008673422 0.005008638 -0.013534611 0.012721524 -0.016308283
0.011712905 0.025149599 0.0091406 0.007988094 0.0040460625 -0.0077281217 0.017746102 -0.002860672
0.004060364 0.014388228 -0.00669606 -0.0038944639 0.003797436 -0.0045327307 -0.03119422 -0.017692808
0.002449811 -0.005234365 -0.002133917 0.0031675305 -0.003960649 -0.013973289 -0.0073786443 0.014111293
0.0026215846 0.0059808125 0.0066321637 0.017044352 0.009495676 0.0042227632 -0.014244129 0.013471426
-0.0155460695 -0.01900301 -0.0036028551 0.0029451211 0.009354486 -0.0055238153 0.029584099 -0.022601655
-0.0039556697 0.00067854754 0.0028209623 0.0066259326 0.015932716 -0.0005072661 0.004963693 0.012169164
0.00473634 -0.0053145736 -0.010043183 0.008168639 0.0073156278 -0.005355853 -0.011152523 0.0021688726
0.010820175 -0.004471072 -0.021637747 0.012582639 0.012869423 0.010457855 0.017778447 0.006881441
0.031108499 -0.03847697 0.04170689 -0.0038328585 0.0060091903 0.0071854126 0.011052567 0.003018561
-0.00043613467 -0.0013911072 -0.016933318 -0.013955263 -0.015861299 -0.001159923 0.0051637166 0.00017237298
0.0009067785 0.008200971 -0.0030018052 0.0060079377 0.017415507 -9.862676e-06 -0.0020820263 0.00050615345
-0.021885555 -0.021251487 -0.0055844453 -0.0013539229 0.008980797 -0.004078616 0.0029882598 0.039343156
-0.003170711 -0.0048015034 -0.035497308 0.009456627 -0.0007719211 0.013677376 0.05539357 0.0019567758
-0.008523653 0.0149053475 0.0008872289 -0.012496369 -0.0021070372 -0.009515301 -0.015342954 -0.019898275
-0.0059500886 0.019371923 0.00054558285 -0.016149923 0.0037642084 0.017601686 -0.028423712 -0.006782215
-0.01858116 -0.012730525 -0.008258008 0.012172042 -0.015367028 0.005481761 0.007928728 -0.015103642
-0.022981 0.013207721 0.015763218 -0.008130824 0.0047604283 0.007523309 0.004640926 0.029673332
-0.005126855 -0.007365113 0.008447247 0.010427558 0.000177619 0.0043466296 0.0017798458 -0.0019819983
0.020672495 -0.008053892 -0.011468479 0.011615699 -0.023002777 -0.002260477 0.0020800692 -0.021146158
0.017248593 -0.0035475488 -0.027142217 0.002836523 0.0054230397 0.0019808451 -0.010697803 -0.025308007
-0.0044238917 -0.003204353 0.0066968636 0.0006191675 0.005074611 0.004190438 -0.0013696505 0.0035167562
-0.0060470044 -0.0065507656 0.017312257 -0.025801651 -0.007956581 -0.0005045427 -0.005115316 -0.010826928
0.0041176677 -0.0027917041 0.009104759 0.0025891387 0.01313063 -0.013763353 -0.00821813 -6.617572e-05
-0.0054816953 -0.018571453 0.005114492 0.0051673325 0.022281911 -0.0037965022 -0.005476623 -0.016133351
0.0039954726 0.014940013 0.0072408747 -0.012174126 -0.025032395 0.0060562356 -0.016930677 0.013514873
-0.008368865 0.0011468005 -0.005587167 0.0058711725 0.009371954 -0.011336289 -0.004462921 0.011853494
1.8408611e-05 0.008216715 0.005021951 0.003936808 0.0058135814 0.012636569 0.008787602 0.031477068
-0.008438268 -0.0044042454 0.0052416725 0.018495362 0.0028056656 0.00692476 0.008025699 -0.019022461
-0.018671453 -0.012885261 -0.0044747707 -0.006939119 0.010218568 0.0073976303 -0.013109528 -0.01614229
-0.0011336652 -0.03248472 0.0047933226 0.009873264 -0.0035343596 -0.00065766514 0.0035818922 0.0051304637
